…
I0520 00:08:12.465869 15139 net.cpp:315] The NetState phase (0) differed from the phase (1) specified by a rule in layer accuracy
I0520 00:08:12.465889 15139 net.cpp:51] Initializing net from parameters: 
name: "CaffeNet"
state {
  phase: TRAIN
}
layer {
  name: "data"
  type: "Data"
  top: "data"
  top: "label"
  include {
    phase: TRAIN
  }
  transform_param {
    mirror: true
    crop_size: 227
    mean_file: "data/ilsvrc12/imagenet_mean.binaryproto"
  }
  data_param {
    source: "examples/imagenet/ilsvrc12_train_lmdb"
    batch_size: 256
    backend: LMDB
  }
}
layer {
  name: "conv1"
  type: "Convolution"
  bottom: "data"
  top: "conv1"
  param {
    lr_mult: 1
    decay_mult: 1
  }
  param {
    lr_mult: 2
    decay_mult: 0
  }
  connectivity_mode: DISCONNECTED_ELTWISE
  convolution_param {
    num_output: 96
    kernel_size: 11
    stride: 4
    weight_filler {
      type: "gaussian"
      std: 0.01
    }
    bias_filler {
      type: "constant"
      value: 0
    }
  }
}
layer {
  name: "relu1"
  type: "ReLU"
  bottom: "conv1"
  top: "conv1"
}
layer {
  name: "pool1"
  type: "Pooling"
  bottom: "conv1"
  top: "pool1"
  pooling_param {
    pool: MAX
    kernel_size: 3
    stride: 2
  }
}
layer {
  name: "norm1"
  type: "LRN"
  bottom: "pool1"
  top: "norm1"
  lrn_param {
    local_size: 5
    alpha: 0.0001
    beta: 0.75
  }
}
layer {
  name: "conv2"
  type: "Convolution"
  bottom: "norm1"
  top: "conv2"
  param {
    lr_mult: 1
    decay_mult: 1
  }
  param {
    lr_mult: 2
    decay_mult: 0
  }
  connectivity_mode: DISCONNECTED_ELTWISE
  convolution_param {
    num_output: 256
    pad: 2
    kernel_size: 5
    group: 2
    weight_filler {
      type: "gaussian"
      std: 0.01
    }
    bias_filler {
      type: "constant"
      value: 1
    }
  }
}
layer {
  name: "relu2"
  type: "ReLU"
  bottom: "conv2"
  top: "conv2"
}
layer {
  name: "pool2"
  type: "Pooling"
  bottom: "conv2"
  top: "pool2"
  pooling_param {
    pool: MAX
    kernel_size: 3
    stride: 2
  }
}
layer {
  name: "norm2"
  type: "LRN"
  bottom: "pool2"
  top: "norm2"
  lrn_param {
    local_size: 5
    alpha: 0.0001
    beta: 0.75
  }
}
layer {
  name: "conv3"
  type: "Convolution"
  bottom: "norm2"
  top: "conv3"
  param {
    lr_mult: 1
    decay_mult: 1
  }
  param {
    lr_mult: 2
    decay_mult: 0
  }
  connectivity_mode: DISCONNECTED_ELTWISE
  convolution_param {
    num_output: 384
    pad: 1
    kernel_size: 3
    weight_filler {
      type: "gaussian"
      std: 0.01
    }
    bias_filler {
      type: "constant"
      value: 0
    }
  }
}
layer {
  name: "relu3"
  type: "ReLU"
  bottom: "conv3"
  top: "conv3"
}
layer {
  name: "conv4"
  type: "Convolution"
  bottom: "conv3"
  top: "conv4"
  param {
    lr_mult: 1
    decay_mult: 1
  }
  param {
    lr_mult: 2
    decay_mult: 0
  }
  connectivity_mode: DISCONNECTED_ELTWISE
  convolution_param {
    num_output: 384
    pad: 1
    kernel_size: 3
    group: 2
    weight_filler {
      type: "gaussian"
      std: 0.01
    }
    bias_filler {
      type: "constant"
      value: 1
    }
  }
}
layer {
  name: "relu4"
  type: "ReLU"
  bottom: "conv4"
  top: "conv4"
}
layer {
  name: "conv5"
  type: "Convolution"
  bottom: "conv4"
  top: "conv5"
  param {
    lr_mult: 1
    decay_mult: 1
  }
  param {
    lr_mult: 2
    decay_mult: 0
  }
  connectivity_mode: DISCONNECTED_ELTWISE
  convolution_param {
    num_output: 256
    pad: 1
    kernel_size: 3
    group: 2
    weight_filler {
      type: "gaussian"
      std: 0.01
    }
    bias_filler {
      type: "constant"
      value: 1
    }
  }
}
layer {
  name: "relu5"
  type: "ReLU"
  bottom: "conv5"
  top: "conv5"
}
layer {
  name: "pool5"
  type: "Pooling"
  bottom: "conv5"
  top: "pool5"
  pooling_param {
    pool: MAX
    kernel_size: 3
    stride: 2
  }
}
layer {
  name: "fc6"
  type: "InnerProduct"
  bottom: "pool5"
  top: "fc6"
  param {
    lr_mult: 1
    decay_mult: 1
  }
  param {
    lr_mult: 2
    decay_mult: 0
  }
  inner_product_param {
    num_output: 4096
    weight_filler {
      type: "gaussian"
      std: 0.005
    }
    bias_filler {
      type: "constant"
      value: 1
    }
  }
}
layer {
  name: "relu6"
  type: "ReLU"
  bottom: "fc6"
  top: "fc6"
}
layer {
  name: "drop6"
  type: "Dropout"
  bottom: "fc6"
  top: "fc6"
  dropout_param {
    dropout_ratio: 0.5
  }
}
layer {
  name: "fc7"
  type: "InnerProduct"
  bottom: "fc6"
  top: "fc7"
  param {
    lr_mult: 1
    decay_mult: 1
  }
  param {
    lr_mult: 2
    decay_mult: 0
  }
  inner_product_param {
    num_output: 4096
    weight_filler {
      type: "gaussian"
      std: 0.005
    }
    bias_filler {
      type: "constant"
      value: 1
    }
  }
}
layer {
  name: "relu7"
  type: "ReLU"
  bottom: "fc7"
  top: "fc7"
}
layer {
  name: "drop7"
  type: "Dropout"
  bottom: "fc7"
  top: "fc7"
  dropout_param {
    dropout_ratio: 0.5
  }
}
layer {
  name: "fc8"
  type: "InnerProduct"
  bottom: "fc7"
  top: "fc8"
  param {
    lr_mult: 1
    decay_mult: 1
  }
  param {
    lr_mult: 2
    decay_mult: 0
  }
  inner_product_param {
    num_output: 1000
    weight_filler {
      type: "gaussian"
      std: 0.01
    }
    bias_filler {
      type: "constant"
      value: 0
    }
  }
}
layer {
  name: "loss"
  type: "SoftmaxWithLoss"
  bottom: "fc8"
  bottom: "label"
  top: "loss"
}
I0520 00:08:12.466290 15139 layer_factory.hpp:77] Creating layer data
I0520 00:08:12.467170 15139 net.cpp:93] Creating Layer data
I0520 00:08:12.467232 15139 net.cpp:401] data -> data
I0520 00:08:12.467284 15139 net.cpp:401] data -> label
I0520 00:08:12.467303 15139 data_transformer.cpp:25] Loading mean file from: data/ilsvrc12/imagenet_mean.binaryproto
I0520 00:08:12.469370 15144 db_lmdb.cpp:38] Opened lmdb examples/imagenet/ilsvrc12_train_lmdb
I0520 00:08:13.144682 15139 data_layer.cpp:41] output data size: 256,3,227,227
I0520 00:08:13.704366 15139 net.cpp:143] Setting up data
I0520 00:08:13.704437 15139 net.cpp:150] Top shape: 256 3 227 227 (39574272)
I0520 00:08:13.704459 15139 net.cpp:150] Top shape: 256 (256)
I0520 00:08:13.704468 15139 net.cpp:158] Memory required for data: 158298112
I0520 00:08:13.704516 15139 layer_factory.hpp:77] Creating layer conv1
I0520 00:08:13.704586 15139 net.cpp:93] Creating Layer conv1
I0520 00:08:13.704596 15139 net.cpp:427] conv1 <- data
I0520 00:08:13.704630 15139 net.cpp:401] conv1 -> conv1
I0520 00:08:16.316476 15139 net.cpp:143] Setting up conv1
I0520 00:08:16.316535 15139 net.cpp:150] Top shape: 256 96 55 55 (74342400)
I0520 00:08:16.316552 15139 net.cpp:158] Memory required for data: 455667712
I0520 00:08:16.316607 15139 layer_factory.hpp:77] Creating layer relu1
I0520 00:08:16.316633 15139 net.cpp:93] Creating Layer relu1
I0520 00:08:16.316642 15139 net.cpp:427] relu1 <- conv1
I0520 00:08:16.316656 15139 net.cpp:388] relu1 -> conv1 (in-place)
I0520 00:08:16.317277 15139 net.cpp:143] Setting up relu1
I0520 00:08:16.317294 15139 net.cpp:150] Top shape: 256 96 55 55 (74342400)
I0520 00:08:16.317306 15139 net.cpp:158] Memory required for data: 753037312
I0520 00:08:16.317313 15139 layer_factory.hpp:77] Creating layer pool1
I0520 00:08:16.317327 15139 net.cpp:93] Creating Layer pool1
I0520 00:08:16.317332 15139 net.cpp:427] pool1 <- conv1
I0520 00:08:16.317358 15139 net.cpp:401] pool1 -> pool1
I0520 00:08:16.449506 15139 net.cpp:143] Setting up pool1
I0520 00:08:16.449569 15139 net.cpp:150] Top shape: 256 96 27 27 (17915904)
I0520 00:08:16.449587 15139 net.cpp:158] Memory required for data: 824700928
I0520 00:08:16.449599 15139 layer_factory.hpp:77] Creating layer norm1
I0520 00:08:16.449633 15139 net.cpp:93] Creating Layer norm1
I0520 00:08:16.449643 15139 net.cpp:427] norm1 <- pool1
I0520 00:08:16.449661 15139 net.cpp:401] norm1 -> norm1
I0520 00:08:16.579560 15139 net.cpp:143] Setting up norm1
I0520 00:08:16.579612 15139 net.cpp:150] Top shape: 256 96 27 27 (17915904)
I0520 00:08:16.579629 15139 net.cpp:158] Memory required for data: 896364544
I0520 00:08:16.579641 15139 layer_factory.hpp:77] Creating layer conv2
I0520 00:08:16.579681 15139 net.cpp:93] Creating Layer conv2
I0520 00:08:16.579690 15139 net.cpp:427] conv2 <- norm1
I0520 00:08:16.579707 15139 net.cpp:401] conv2 -> conv2
I0520 00:08:18.199852 15139 net.cpp:143] Setting up conv2
I0520 00:08:18.199892 15139 net.cpp:150] Top shape: 256 256 27 27 (47775744)
I0520 00:08:18.199903 15139 net.cpp:158] Memory required for data: 1087467520
I0520 00:08:18.199935 15139 layer_factory.hpp:77] Creating layer relu2
I0520 00:08:18.199952 15139 net.cpp:93] Creating Layer relu2
I0520 00:08:18.199959 15139 net.cpp:427] relu2 <- conv2
I0520 00:08:18.199970 15139 net.cpp:388] relu2 -> conv2 (in-place)
I0520 00:08:18.200273 15139 net.cpp:143] Setting up relu2
I0520 00:08:18.200284 15139 net.cpp:150] Top shape: 256 256 27 27 (47775744)
I0520 00:08:18.200291 15139 net.cpp:158] Memory required for data: 1278570496
I0520 00:08:18.200297 15139 layer_factory.hpp:77] Creating layer pool2
I0520 00:08:18.200307 15139 net.cpp:93] Creating Layer pool2
I0520 00:08:18.200311 15139 net.cpp:427] pool2 <- conv2
I0520 00:08:18.200317 15139 net.cpp:401] pool2 -> pool2
I0520 00:08:18.271373 15139 net.cpp:143] Setting up pool2
I0520 00:08:18.271414 15139 net.cpp:150] Top shape: 256 256 13 13 (11075584)
I0520 00:08:18.271425 15139 net.cpp:158] Memory required for data: 1322872832
I0520 00:08:18.271435 15139 layer_factory.hpp:77] Creating layer norm2
I0520 00:08:18.271457 15139 net.cpp:93] Creating Layer norm2
I0520 00:08:18.271464 15139 net.cpp:427] norm2 <- pool2
I0520 00:08:18.271474 15139 net.cpp:401] norm2 -> norm2
I0520 00:08:18.345700 15139 net.cpp:143] Setting up norm2
I0520 00:08:18.345758 15139 net.cpp:150] Top shape: 256 256 13 13 (11075584)
I0520 00:08:18.345777 15139 net.cpp:158] Memory required for data: 1367175168
I0520 00:08:18.345788 15139 layer_factory.hpp:77] Creating layer conv3
I0520 00:08:18.345826 15139 net.cpp:93] Creating Layer conv3
I0520 00:08:18.345836 15139 net.cpp:427] conv3 <- norm2
I0520 00:08:18.345855 15139 net.cpp:401] conv3 -> conv3
I0520 00:08:18.778595 15139 net.cpp:143] Setting up conv3
I0520 00:08:18.778650 15139 net.cpp:150] Top shape: 256 384 13 13 (16613376)
I0520 00:08:18.778667 15139 net.cpp:158] Memory required for data: 1433628672
I0520 00:08:18.778702 15139 layer_factory.hpp:77] Creating layer relu3
I0520 00:08:18.778720 15139 net.cpp:93] Creating Layer relu3
I0520 00:08:18.778729 15139 net.cpp:427] relu3 <- conv3
I0520 00:08:18.778743 15139 net.cpp:388] relu3 -> conv3 (in-place)
I0520 00:08:18.779093 15139 net.cpp:143] Setting up relu3
I0520 00:08:18.779106 15139 net.cpp:150] Top shape: 256 384 13 13 (16613376)
I0520 00:08:18.779117 15139 net.cpp:158] Memory required for data: 1500082176
I0520 00:08:18.779125 15139 layer_factory.hpp:77] Creating layer conv4
I0520 00:08:18.779153 15139 net.cpp:93] Creating Layer conv4
I0520 00:08:18.779161 15139 net.cpp:427] conv4 <- conv3
I0520 00:08:18.779172 15139 net.cpp:401] conv4 -> conv4
I0520 00:08:19.322629 15139 net.cpp:143] Setting up conv4
I0520 00:08:19.322675 15139 net.cpp:150] Top shape: 256 384 13 13 (16613376)
I0520 00:08:19.322690 15139 net.cpp:158] Memory required for data: 1566535680
I0520 00:08:19.322710 15139 layer_factory.hpp:77] Creating layer relu4
I0520 00:08:19.322732 15139 net.cpp:93] Creating Layer relu4
I0520 00:08:19.322738 15139 net.cpp:427] relu4 <- conv4
I0520 00:08:19.322757 15139 net.cpp:388] relu4 -> conv4 (in-place)
I0520 00:08:19.323038 15139 net.cpp:143] Setting up relu4
I0520 00:08:19.323048 15139 net.cpp:150] Top shape: 256 384 13 13 (16613376)
I0520 00:08:19.323055 15139 net.cpp:158] Memory required for data: 1632989184
I0520 00:08:19.323060 15139 layer_factory.hpp:77] Creating layer conv5
I0520 00:08:19.323079 15139 net.cpp:93] Creating Layer conv5
I0520 00:08:19.323084 15139 net.cpp:427] conv5 <- conv4
I0520 00:08:19.323092 15139 net.cpp:401] conv5 -> conv5
I0520 00:08:19.847676 15139 net.cpp:143] Setting up conv5
I0520 00:08:19.847715 15139 net.cpp:150] Top shape: 256 256 13 13 (11075584)
I0520 00:08:19.847730 15139 net.cpp:158] Memory required for data: 1677291520
I0520 00:08:19.847754 15139 layer_factory.hpp:77] Creating layer relu5
I0520 00:08:19.847771 15139 net.cpp:93] Creating Layer relu5
I0520 00:08:19.847777 15139 net.cpp:427] relu5 <- conv5
I0520 00:08:19.847787 15139 net.cpp:388] relu5 -> conv5 (in-place)
I0520 00:08:19.848062 15139 net.cpp:143] Setting up relu5
I0520 00:08:19.848072 15139 net.cpp:150] Top shape: 256 256 13 13 (11075584)
I0520 00:08:19.848080 15139 net.cpp:158] Memory required for data: 1721593856
I0520 00:08:19.848085 15139 layer_factory.hpp:77] Creating layer pool5
I0520 00:08:19.848095 15139 net.cpp:93] Creating Layer pool5
I0520 00:08:19.848100 15139 net.cpp:427] pool5 <- conv5
I0520 00:08:19.848109 15139 net.cpp:401] pool5 -> pool5
I0520 00:08:19.860148 15139 net.cpp:143] Setting up pool5
I0520 00:08:19.860183 15139 net.cpp:150] Top shape: 256 256 6 6 (2359296)
I0520 00:08:19.860194 15139 net.cpp:158] Memory required for data: 1731031040
I0520 00:08:19.860204 15139 layer_factory.hpp:77] Creating layer fc6
I0520 00:08:19.860229 15139 net.cpp:93] Creating Layer fc6
I0520 00:08:19.860235 15139 net.cpp:427] fc6 <- pool5
I0520 00:08:19.860245 15139 net.cpp:401] fc6 -> fc6
I0520 00:08:20.546895 15139 net.cpp:143] Setting up fc6
I0520 00:08:20.546936 15139 net.cpp:150] Top shape: 256 4096 (1048576)
I0520 00:08:20.546948 15139 net.cpp:158] Memory required for data: 1735225344
I0520 00:08:20.546967 15139 layer_factory.hpp:77] Creating layer relu6
I0520 00:08:20.546982 15139 net.cpp:93] Creating Layer relu6
I0520 00:08:20.546988 15139 net.cpp:427] relu6 <- fc6
I0520 00:08:20.546996 15139 net.cpp:388] relu6 -> fc6 (in-place)
I0520 00:08:20.547500 15139 net.cpp:143] Setting up relu6
I0520 00:08:20.547513 15139 net.cpp:150] Top shape: 256 4096 (1048576)
I0520 00:08:20.547523 15139 net.cpp:158] Memory required for data: 1739419648
I0520 00:08:20.547528 15139 layer_factory.hpp:77] Creating layer drop6
I0520 00:08:20.547540 15139 net.cpp:93] Creating Layer drop6
I0520 00:08:20.547544 15139 net.cpp:427] drop6 <- fc6
I0520 00:08:20.547550 15139 net.cpp:388] drop6 -> fc6 (in-place)
I0520 00:08:20.550324 15139 net.cpp:143] Setting up drop6
I0520 00:08:20.550339 15139 net.cpp:150] Top shape: 256 4096 (1048576)
I0520 00:08:20.550348 15139 net.cpp:158] Memory required for data: 1743613952
I0520 00:08:20.550354 15139 layer_factory.hpp:77] Creating layer fc7
I0520 00:08:20.550369 15139 net.cpp:93] Creating Layer fc7
I0520 00:08:20.550374 15139 net.cpp:427] fc7 <- fc6
I0520 00:08:20.550380 15139 net.cpp:401] fc7 -> fc7
I0520 00:08:20.958202 15139 net.cpp:143] Setting up fc7
I0520 00:08:20.958266 15139 net.cpp:150] Top shape: 256 4096 (1048576)
I0520 00:08:20.958281 15139 net.cpp:158] Memory required for data: 1747808256
I0520 00:08:20.958314 15139 layer_factory.hpp:77] Creating layer relu7
I0520 00:08:20.958338 15139 net.cpp:93] Creating Layer relu7
I0520 00:08:20.958349 15139 net.cpp:427] relu7 <- fc7
I0520 00:08:20.958362 15139 net.cpp:388] relu7 -> fc7 (in-place)
I0520 00:08:20.958854 15139 net.cpp:143] Setting up relu7
I0520 00:08:20.958868 15139 net.cpp:150] Top shape: 256 4096 (1048576)
I0520 00:08:20.958878 15139 net.cpp:158] Memory required for data: 1752002560
I0520 00:08:20.958886 15139 layer_factory.hpp:77] Creating layer drop7
I0520 00:08:20.958905 15139 net.cpp:93] Creating Layer drop7
I0520 00:08:20.958912 15139 net.cpp:427] drop7 <- fc7
I0520 00:08:20.958936 15139 net.cpp:388] drop7 -> fc7 (in-place)
I0520 00:08:20.962664 15139 net.cpp:143] Setting up drop7
I0520 00:08:20.962720 15139 net.cpp:150] Top shape: 256 4096 (1048576)
I0520 00:08:20.962735 15139 net.cpp:158] Memory required for data: 1756196864
I0520 00:08:20.962748 15139 layer_factory.hpp:77] Creating layer fc8
I0520 00:08:20.962776 15139 net.cpp:93] Creating Layer fc8
I0520 00:08:20.962785 15139 net.cpp:427] fc8 <- fc7
I0520 00:08:20.962802 15139 net.cpp:401] fc8 -> fc8
I0520 00:08:21.073776 15139 net.cpp:143] Setting up fc8
I0520 00:08:21.073844 15139 net.cpp:150] Top shape: 256 1000 (256000)
I0520 00:08:21.073861 15139 net.cpp:158] Memory required for data: 1757220864
I0520 00:08:21.073886 15139 layer_factory.hpp:77] Creating layer loss
I0520 00:08:21.073905 15139 net.cpp:93] Creating Layer loss
I0520 00:08:21.073915 15139 net.cpp:427] loss <- fc8
I0520 00:08:21.073927 15139 net.cpp:427] loss <- label
I0520 00:08:21.073942 15139 net.cpp:401] loss -> loss
I0520 00:08:21.074009 15139 layer_factory.hpp:77] Creating layer loss
…
I0520 00:08:21.078491 15139 net.cpp:315] The NetState phase (1) differed from the phase (0) specified by a rule in layer data
I0520 00:08:21.078531 15139 net.cpp:51] Initializing net from parameters: 
name: "CaffeNet"
state {
  phase: TEST
}
layer {
  name: "data"
  type: "Data"
  top: "data"
  top: "label"
  include {
    phase: TEST
  }
  transform_param {
    mirror: false
    crop_size: 227
    mean_file: "data/ilsvrc12/imagenet_mean.binaryproto"
  }
  data_param {
    source: "examples/imagenet/ilsvrc12_val_lmdb"
    batch_size: 50
    backend: LMDB
  }
}
layer {
  name: "conv1"
  type: "Convolution"
  bottom: "data"
  top: "conv1"
  param {
    lr_mult: 1
    decay_mult: 1
  }
  param {
    lr_mult: 2
    decay_mult: 0
  }
  connectivity_mode: DISCONNECTED_ELTWISE
  convolution_param {
    num_output: 96
    kernel_size: 11
    stride: 4
    weight_filler {
      type: "gaussian"
      std: 0.01
    }
    bias_filler {
      type: "constant"
      value: 0
    }
  }
}
layer {
  name: "relu1"
  type: "ReLU"
  bottom: "conv1"
  top: "conv1"
}
layer {
  name: "pool1"
  type: "Pooling"
  bottom: "conv1"
  top: "pool1"
  pooling_param {
    pool: MAX
    kernel_size: 3
    stride: 2
  }
}
layer {
  name: "norm1"
  type: "LRN"
  bottom: "pool1"
  top: "norm1"
  lrn_param {
    local_size: 5
    alpha: 0.0001
    beta: 0.75
  }
}
layer {
  name: "conv2"
  type: "Convolution"
  bottom: "norm1"
  top: "conv2"
  param {
    lr_mult: 1
    decay_mult: 1
  }
  param {
    lr_mult: 2
    decay_mult: 0
  }
  connectivity_mode: DISCONNECTED_ELTWISE
  convolution_param {
    num_output: 256
    pad: 2
    kernel_size: 5
    group: 2
    weight_filler {
      type: "gaussian"
      std: 0.01
    }
    bias_filler {
      type: "constant"
      value: 1
    }
  }
}
layer {
  name: "relu2"
  type: "ReLU"
  bottom: "conv2"
  top: "conv2"
}
layer {
  name: "pool2"
  type: "Pooling"
  bottom: "conv2"
  top: "pool2"
  pooling_param {
    pool: MAX
    kernel_size: 3
    stride: 2
  }
}
layer {
  name: "norm2"
  type: "LRN"
  bottom: "pool2"
  top: "norm2"
  lrn_param {
    local_size: 5
    alpha: 0.0001
    beta: 0.75
  }
}
layer {
  name: "conv3"
  type: "Convolution"
  bottom: "norm2"
  top: "conv3"
  param {
    lr_mult: 1
    decay_mult: 1
  }
  param {
    lr_mult: 2
    decay_mult: 0
  }
  connectivity_mode: DISCONNECTED_ELTWISE
  convolution_param {
    num_output: 384
    pad: 1
    kernel_size: 3
    weight_filler {
      type: "gaussian"
      std: 0.01
    }
    bias_filler {
      type: "constant"
      value: 0
    }
  }
}
layer {
  name: "relu3"
  type: "ReLU"
  bottom: "conv3"
  top: "conv3"
}
layer {
  name: "conv4"
  type: "Convolution"
  bottom: "conv3"
  top: "conv4"
  param {
    lr_mult: 1
    decay_mult: 1
  }
  param {
    lr_mult: 2
    decay_mult: 0
  }
  connectivity_mode: DISCONNECTED_ELTWISE
  convolution_param {
    num_output: 384
    pad: 1
    kernel_size: 3
    group: 2
    weight_filler {
      type: "gaussian"
      std: 0.01
    }
    bias_filler {
      type: "constant"
      value: 1
    }
  }
}
layer {
  name: "relu4"
  type: "ReLU"
  bottom: "conv4"
  top: "conv4"
}
layer {
  name: "conv5"
  type: "Convolution"
  bottom: "conv4"
  top: "conv5"
  param {
    lr_mult: 1
    decay_mult: 1
  }
  param {
    lr_mult: 2
    decay_mult: 0
  }
  connectivity_mode: DISCONNECTED_ELTWISE
  convolution_param {
    num_output: 256
    pad: 1
    kernel_size: 3
    group: 2
    weight_filler {
      type: "gaussian"
      std: 0.01
    }
    bias_filler {
      type: "constant"
      value: 1
    }
  }
}
layer {
  name: "relu5"
  type: "ReLU"
  bottom: "conv5"
  top: "conv5"
}
layer {
  name: "pool5"
  type: "Pooling"
  bottom: "conv5"
  top: "pool5"
  pooling_param {
    pool: MAX
    kernel_size: 3
    stride: 2
  }
}
layer {
  name: "fc6"
  type: "InnerProduct"
  bottom: "pool5"
  top: "fc6"
  param {
    lr_mult: 1
    decay_mult: 1
  }
  param {
    lr_mult: 2
    decay_mult: 0
  }
  inner_product_param {
    num_output: 4096
    weight_filler {
      type: "gaussian"
      std: 0.005
    }
    bias_filler {
      type: "constant"
      value: 1
    }
  }
}
layer {
  name: "relu6"
  type: "ReLU"
  bottom: "fc6"
  top: "fc6"
}
layer {
  name: "drop6"
  type: "Dropout"
  bottom: "fc6"
  top: "fc6"
  dropout_param {
    dropout_ratio: 0.5
  }
}
layer {
  name: "fc7"
  type: "InnerProduct"
  bottom: "fc6"
  top: "fc7"
  param {
    lr_mult: 1
    decay_mult: 1
  }
  param {
    lr_mult: 2
    decay_mult: 0
  }
  inner_product_param {
    num_output: 4096
    weight_filler {
      type: "gaussian"
      std: 0.005
    }
    bias_filler {
      type: "constant"
      value: 1
    }
  }
}
layer {
  name: "relu7"
  type: "ReLU"
  bottom: "fc7"
  top: "fc7"
}
layer {
  name: "drop7"
  type: "Dropout"
  bottom: "fc7"
  top: "fc7"
  dropout_param {
    dropout_ratio: 0.5
  }
}
layer {
  name: "fc8"
  type: "InnerProduct"
  bottom: "fc7"
  top: "fc8"
  param {
    lr_mult: 1
    decay_mult: 1
  }
  param {
    lr_mult: 2
    decay_mult: 0
  }
  inner_product_param {
    num_output: 1000
    weight_filler {
      type: "gaussian"
      std: 0.01
    }
    bias_filler {
      type: "constant"
      value: 0
    }
  }
}
layer {
  name: "accuracy"
  type: "Accuracy"
  bottom: "fc8"
  bottom: "label"
  top: "accuracy"
  include {
    phase: TEST
  }
}
layer {
  name: "loss"
  type: "SoftmaxWithLoss"
  bottom: "fc8"
  bottom: "label"
  top: "loss"
}
I0520 00:08:21.079026 15139 layer_factory.hpp:77] Creating layer data
I0520 00:08:21.079190 15139 net.cpp:93] Creating Layer data
I0520 00:08:21.079207 15139 net.cpp:401] data -> data
I0520 00:08:21.079224 15139 net.cpp:401] data -> label
I0520 00:08:21.079241 15139 data_transformer.cpp:25] Loading mean file from: data/ilsvrc12/imagenet_mean.binaryproto
I0520 00:08:21.081508 15146 db_lmdb.cpp:38] Opened lmdb examples/imagenet/ilsvrc12_val_lmdb
I0520 00:08:21.206688 15139 data_layer.cpp:41] output data size: 50,3,227,227
I0520 00:08:21.314823 15139 net.cpp:143] Setting up data
I0520 00:08:21.314891 15139 net.cpp:150] Top shape: 50 3 227 227 (7729350)
I0520 00:08:21.315027 15139 net.cpp:150] Top shape: 50 (50)
I0520 00:08:21.315052 15139 net.cpp:158] Memory required for data: 30917600
I0520 00:08:21.315068 15139 layer_factory.hpp:77] Creating layer label_data_1_split
I0520 00:08:21.315091 15139 net.cpp:93] Creating Layer label_data_1_split
I0520 00:08:21.315101 15139 net.cpp:427] label_data_1_split <- label
I0520 00:08:21.315119 15139 net.cpp:401] label_data_1_split -> label_data_1_split_0
I0520 00:08:21.315140 15139 net.cpp:401] label_data_1_split -> label_data_1_split_1
I0520 00:08:21.315331 15139 net.cpp:143] Setting up label_data_1_split
I0520 00:08:21.315342 15139 net.cpp:150] Top shape: 50 (50)
I0520 00:08:21.315351 15139 net.cpp:150] Top shape: 50 (50)
I0520 00:08:21.315359 15139 net.cpp:158] Memory required for data: 30918000
I0520 00:08:21.315366 15139 layer_factory.hpp:77] Creating layer conv1
I0520 00:08:21.315392 15139 net.cpp:93] Creating Layer conv1
I0520 00:08:21.315398 15139 net.cpp:427] conv1 <- data
I0520 00:08:21.315409 15139 net.cpp:401] conv1 -> conv1
I0520 00:08:21.604104 15139 net.cpp:143] Setting up conv1
I0520 00:08:21.604174 15139 net.cpp:150] Top shape: 50 96 55 55 (14520000)
I0520 00:08:21.604192 15139 net.cpp:158] Memory required for data: 88998000
I0520 00:08:21.604226 15139 layer_factory.hpp:77] Creating layer relu1
I0520 00:08:21.604249 15139 net.cpp:93] Creating Layer relu1
I0520 00:08:21.604259 15139 net.cpp:427] relu1 <- conv1
I0520 00:08:21.604272 15139 net.cpp:388] relu1 -> conv1 (in-place)
I0520 00:08:21.604674 15139 net.cpp:143] Setting up relu1
I0520 00:08:21.604691 15139 net.cpp:150] Top shape: 50 96 55 55 (14520000)
I0520 00:08:21.604702 15139 net.cpp:158] Memory required for data: 147078000
I0520 00:08:21.604710 15139 layer_factory.hpp:77] Creating layer pool1
I0520 00:08:21.604727 15139 net.cpp:93] Creating Layer pool1
I0520 00:08:21.604735 15139 net.cpp:427] pool1 <- conv1
I0520 00:08:21.604748 15139 net.cpp:401] pool1 -> pool1
I0520 00:08:21.632920 15139 net.cpp:143] Setting up pool1
I0520 00:08:21.632980 15139 net.cpp:150] Top shape: 50 96 27 27 (3499200)
I0520 00:08:21.632997 15139 net.cpp:158] Memory required for data: 161074800
I0520 00:08:21.633009 15139 layer_factory.hpp:77] Creating layer norm1
I0520 00:08:21.633036 15139 net.cpp:93] Creating Layer norm1
I0520 00:08:21.633047 15139 net.cpp:427] norm1 <- pool1
I0520 00:08:21.633064 15139 net.cpp:401] norm1 -> norm1
I0520 00:08:21.662091 15139 net.cpp:143] Setting up norm1
I0520 00:08:21.662153 15139 net.cpp:150] Top shape: 50 96 27 27 (3499200)
I0520 00:08:21.662170 15139 net.cpp:158] Memory required for data: 175071600
I0520 00:08:21.662184 15139 layer_factory.hpp:77] Creating layer conv2
I0520 00:08:21.662217 15139 net.cpp:93] Creating Layer conv2
I0520 00:08:21.662257 15139 net.cpp:427] conv2 <- norm1
I0520 00:08:21.662307 15139 net.cpp:401] conv2 -> conv2
I0520 00:08:22.061264 15139 net.cpp:143] Setting up conv2
I0520 00:08:22.061327 15139 net.cpp:150] Top shape: 50 256 27 27 (9331200)
I0520 00:08:22.061344 15139 net.cpp:158] Memory required for data: 212396400
I0520 00:08:22.061378 15139 layer_factory.hpp:77] Creating layer relu2
I0520 00:08:22.061398 15139 net.cpp:93] Creating Layer relu2
I0520 00:08:22.061406 15139 net.cpp:427] relu2 <- conv2
I0520 00:08:22.061419 15139 net.cpp:388] relu2 -> conv2 (in-place)
I0520 00:08:22.061801 15139 net.cpp:143] Setting up relu2
I0520 00:08:22.061817 15139 net.cpp:150] Top shape: 50 256 27 27 (9331200)
I0520 00:08:22.061827 15139 net.cpp:158] Memory required for data: 249721200
I0520 00:08:22.061836 15139 layer_factory.hpp:77] Creating layer pool2
I0520 00:08:22.061851 15139 net.cpp:93] Creating Layer pool2
I0520 00:08:22.061857 15139 net.cpp:427] pool2 <- conv2
I0520 00:08:22.061868 15139 net.cpp:401] pool2 -> pool2
I0520 00:08:22.077700 15139 net.cpp:143] Setting up pool2
I0520 00:08:22.077769 15139 net.cpp:150] Top shape: 50 256 13 13 (2163200)
I0520 00:08:22.077785 15139 net.cpp:158] Memory required for data: 258374000
I0520 00:08:22.077797 15139 layer_factory.hpp:77] Creating layer norm2
I0520 00:08:22.077822 15139 net.cpp:93] Creating Layer norm2
I0520 00:08:22.077831 15139 net.cpp:427] norm2 <- pool2
I0520 00:08:22.077847 15139 net.cpp:401] norm2 -> norm2
I0520 00:08:22.094183 15139 net.cpp:143] Setting up norm2
I0520 00:08:22.094249 15139 net.cpp:150] Top shape: 50 256 13 13 (2163200)
I0520 00:08:22.094269 15139 net.cpp:158] Memory required for data: 267026800
I0520 00:08:22.094281 15139 layer_factory.hpp:77] Creating layer conv3
I0520 00:08:22.094316 15139 net.cpp:93] Creating Layer conv3
I0520 00:08:22.094326 15139 net.cpp:427] conv3 <- norm2
I0520 00:08:22.094344 15139 net.cpp:401] conv3 -> conv3
I0520 00:08:22.221629 15139 net.cpp:143] Setting up conv3
I0520 00:08:22.221685 15139 net.cpp:150] Top shape: 50 384 13 13 (3244800)
I0520 00:08:22.221703 15139 net.cpp:158] Memory required for data: 280006000
I0520 00:08:22.221735 15139 layer_factory.hpp:77] Creating layer relu3
I0520 00:08:22.221755 15139 net.cpp:93] Creating Layer relu3
I0520 00:08:22.221763 15139 net.cpp:427] relu3 <- conv3
I0520 00:08:22.221776 15139 net.cpp:388] relu3 -> conv3 (in-place)
I0520 00:08:22.222498 15139 net.cpp:143] Setting up relu3
I0520 00:08:22.222519 15139 net.cpp:150] Top shape: 50 384 13 13 (3244800)
I0520 00:08:22.222530 15139 net.cpp:158] Memory required for data: 292985200
I0520 00:08:22.222539 15139 layer_factory.hpp:77] Creating layer conv4
I0520 00:08:22.222563 15139 net.cpp:93] Creating Layer conv4
I0520 00:08:22.222571 15139 net.cpp:427] conv4 <- conv3
I0520 00:08:22.222584 15139 net.cpp:401] conv4 -> conv4
I0520 00:08:22.368185 15139 net.cpp:143] Setting up conv4
I0520 00:08:22.368242 15139 net.cpp:150] Top shape: 50 384 13 13 (3244800)
I0520 00:08:22.368259 15139 net.cpp:158] Memory required for data: 305964400
I0520 00:08:22.368284 15139 layer_factory.hpp:77] Creating layer relu4
I0520 00:08:22.368304 15139 net.cpp:93] Creating Layer relu4
I0520 00:08:22.368314 15139 net.cpp:427] relu4 <- conv4
I0520 00:08:22.368327 15139 net.cpp:388] relu4 -> conv4 (in-place)
I0520 00:08:22.368706 15139 net.cpp:143] Setting up relu4
I0520 00:08:22.368719 15139 net.cpp:150] Top shape: 50 384 13 13 (3244800)
I0520 00:08:22.368729 15139 net.cpp:158] Memory required for data: 318943600
I0520 00:08:22.368736 15139 layer_factory.hpp:77] Creating layer conv5
I0520 00:08:22.368759 15139 net.cpp:93] Creating Layer conv5
I0520 00:08:22.368767 15139 net.cpp:427] conv5 <- conv4
I0520 00:08:22.368777 15139 net.cpp:401] conv5 -> conv5
I0520 00:08:22.511989 15139 net.cpp:143] Setting up conv5
I0520 00:08:22.512049 15139 net.cpp:150] Top shape: 50 256 13 13 (2163200)
I0520 00:08:22.512068 15139 net.cpp:158] Memory required for data: 327596400
I0520 00:08:22.512100 15139 layer_factory.hpp:77] Creating layer relu5
I0520 00:08:22.512121 15139 net.cpp:93] Creating Layer relu5
I0520 00:08:22.512146 15139 net.cpp:427] relu5 <- conv5
I0520 00:08:22.512179 15139 net.cpp:388] relu5 -> conv5 (in-place)
I0520 00:08:22.512548 15139 net.cpp:143] Setting up relu5
I0520 00:08:22.512560 15139 net.cpp:150] Top shape: 50 256 13 13 (2163200)
I0520 00:08:22.512570 15139 net.cpp:158] Memory required for data: 336249200
I0520 00:08:22.512578 15139 layer_factory.hpp:77] Creating layer pool5
I0520 00:08:22.512593 15139 net.cpp:93] Creating Layer pool5
I0520 00:08:22.512599 15139 net.cpp:427] pool5 <- conv5
I0520 00:08:22.512609 15139 net.cpp:401] pool5 -> pool5
I0520 00:08:22.516013 15139 net.cpp:143] Setting up pool5
I0520 00:08:22.516052 15139 net.cpp:150] Top shape: 50 256 6 6 (460800)
I0520 00:08:22.516064 15139 net.cpp:158] Memory required for data: 338092400
I0520 00:08:22.516073 15139 layer_factory.hpp:77] Creating layer fc6
I0520 00:08:22.516096 15139 net.cpp:93] Creating Layer fc6
I0520 00:08:22.516104 15139 net.cpp:427] fc6 <- pool5
I0520 00:08:22.516119 15139 net.cpp:401] fc6 -> fc6
I0520 00:08:23.502233 15139 net.cpp:143] Setting up fc6
I0520 00:08:23.502291 15139 net.cpp:150] Top shape: 50 4096 (204800)
I0520 00:08:23.502307 15139 net.cpp:158] Memory required for data: 338911600
I0520 00:08:23.502336 15139 layer_factory.hpp:77] Creating layer relu6
I0520 00:08:23.502358 15139 net.cpp:93] Creating Layer relu6
I0520 00:08:23.502368 15139 net.cpp:427] relu6 <- fc6
I0520 00:08:23.502382 15139 net.cpp:388] relu6 -> fc6 (in-place)
I0520 00:08:23.503176 15139 net.cpp:143] Setting up relu6
I0520 00:08:23.503195 15139 net.cpp:150] Top shape: 50 4096 (204800)
I0520 00:08:23.503206 15139 net.cpp:158] Memory required for data: 339730800
I0520 00:08:23.503213 15139 layer_factory.hpp:77] Creating layer drop6
I0520 00:08:23.503228 15139 net.cpp:93] Creating Layer drop6
I0520 00:08:23.503235 15139 net.cpp:427] drop6 <- fc6
I0520 00:08:23.503247 15139 net.cpp:388] drop6 -> fc6 (in-place)
I0520 00:08:23.504439 15139 net.cpp:143] Setting up drop6
I0520 00:08:23.504457 15139 net.cpp:150] Top shape: 50 4096 (204800)
I0520 00:08:23.504468 15139 net.cpp:158] Memory required for data: 340550000
I0520 00:08:23.504477 15139 layer_factory.hpp:77] Creating layer fc7
I0520 00:08:23.504498 15139 net.cpp:93] Creating Layer fc7
I0520 00:08:23.504505 15139 net.cpp:427] fc7 <- fc6
I0520 00:08:23.504518 15139 net.cpp:401] fc7 -> fc7
I0520 00:08:23.942383 15139 net.cpp:143] Setting up fc7
I0520 00:08:23.942435 15139 net.cpp:150] Top shape: 50 4096 (204800)
I0520 00:08:23.942451 15139 net.cpp:158] Memory required for data: 341369200
I0520 00:08:23.942474 15139 layer_factory.hpp:77] Creating layer relu7
I0520 00:08:23.942493 15139 net.cpp:93] Creating Layer relu7
I0520 00:08:23.942502 15139 net.cpp:427] relu7 <- fc7
I0520 00:08:23.942518 15139 net.cpp:388] relu7 -> fc7 (in-place)
I0520 00:08:23.942891 15139 net.cpp:143] Setting up relu7
I0520 00:08:23.942906 15139 net.cpp:150] Top shape: 50 4096 (204800)
I0520 00:08:23.942916 15139 net.cpp:158] Memory required for data: 342188400
I0520 00:08:23.942924 15139 layer_factory.hpp:77] Creating layer drop7
I0520 00:08:23.942936 15139 net.cpp:93] Creating Layer drop7
I0520 00:08:23.942944 15139 net.cpp:427] drop7 <- fc7
I0520 00:08:23.942952 15139 net.cpp:388] drop7 -> fc7 (in-place)
I0520 00:08:23.944144 15139 net.cpp:143] Setting up drop7
I0520 00:08:23.944162 15139 net.cpp:150] Top shape: 50 4096 (204800)
I0520 00:08:23.944175 15139 net.cpp:158] Memory required for data: 343007600
I0520 00:08:23.944185 15139 layer_factory.hpp:77] Creating layer fc8
I0520 00:08:23.944202 15139 net.cpp:93] Creating Layer fc8
I0520 00:08:23.944210 15139 net.cpp:427] fc8 <- fc7
I0520 00:08:23.944222 15139 net.cpp:401] fc8 -> fc8
I0520 00:08:24.050623 15139 net.cpp:143] Setting up fc8
I0520 00:08:24.050683 15139 net.cpp:150] Top shape: 50 1000 (50000)
I0520 00:08:24.050698 15139 net.cpp:158] Memory required for data: 343207600
I0520 00:08:24.050721 15139 layer_factory.hpp:77] Creating layer fc8_fc8_0_split
I0520 00:08:24.050740 15139 net.cpp:93] Creating Layer fc8_fc8_0_split
I0520 00:08:24.050773 15139 net.cpp:427] fc8_fc8_0_split <- fc8
I0520 00:08:24.050807 15139 net.cpp:401] fc8_fc8_0_split -> fc8_fc8_0_split_0
I0520 00:08:24.050822 15139 net.cpp:401] fc8_fc8_0_split -> fc8_fc8_0_split_1
I0520 00:08:24.051080 15139 net.cpp:143] Setting up fc8_fc8_0_split
I0520 00:08:24.051091 15139 net.cpp:150] Top shape: 50 1000 (50000)
I0520 00:08:24.051103 15139 net.cpp:150] Top shape: 50 1000 (50000)
I0520 00:08:24.051111 15139 net.cpp:158] Memory required for data: 343607600
I0520 00:08:24.051118 15139 layer_factory.hpp:77] Creating layer accuracy
I0520 00:08:24.051133 15139 net.cpp:93] Creating Layer accuracy
I0520 00:08:24.051141 15139 net.cpp:427] accuracy <- fc8_fc8_0_split_0
I0520 00:08:24.051148 15139 net.cpp:427] accuracy <- label_data_1_split_0
I0520 00:08:24.051162 15139 net.cpp:401] accuracy -> accuracy
…
