…
I0517 08:20:12.142917  4008 net.cpp:315] The NetState phase (0) differed from the phase (1) specified by a rule in layer accuracy
I0517 08:20:12.142935  4008 net.cpp:51] Initializing net from parameters: 
name: "CaffeNet"
state {
  phase: TRAIN
}
layer {
  name: "data"
  type: "Data"
  top: "data"
  top: "label"
  include {
    phase: TRAIN
  }
  transform_param {
    mirror: true
    crop_size: 227
    mean_file: "data/ilsvrc12/imagenet_mean.binaryproto"
  }
  data_param {
    source: "examples/imagenet/ilsvrc12_train_lmdb"
    batch_size: 256
    backend: LMDB
  }
}
layer {
  name: "conv1"
  type: "Convolution"
  bottom: "data"
  top: "conv1"
  param {
    lr_mult: 1
    decay_mult: 1
    regularization_type: "L2"
  }
  param {
    lr_mult: 2
    decay_mult: 0
  }
  convolution_param {
    num_output: 96
    kernel_size: 11
    stride: 4
    weight_filler {
      type: "gaussian"
      std: 0.01
    }
    bias_filler {
      type: "constant"
      value: 0
    }
  }
}
layer {
  name: "relu1"
  type: "ReLU"
  bottom: "conv1"
  top: "conv1"
}
layer {
  name: "pool1"
  type: "Pooling"
  bottom: "conv1"
  top: "pool1"
  pooling_param {
    pool: MAX
    kernel_size: 3
    stride: 2
  }
}
layer {
  name: "norm1"
  type: "LRN"
  bottom: "pool1"
  top: "norm1"
  lrn_param {
    local_size: 5
    alpha: 0.0001
    beta: 0.75
  }
}
layer {
  name: "conv2"
  type: "Convolution"
  bottom: "norm1"
  top: "conv2"
  param {
    lr_mult: 1
    decay_mult: 1
    regularization_type: "L1"
  }
  param {
    lr_mult: 2
    decay_mult: 0
  }
  convolution_param {
    num_output: 256
    pad: 2
    kernel_size: 5
    group: 2
    weight_filler {
      type: "gaussian"
      std: 0.01
    }
    bias_filler {
      type: "constant"
      value: 1
    }
  }
}
layer {
  name: "relu2"
  type: "ReLU"
  bottom: "conv2"
  top: "conv2"
}
layer {
  name: "pool2"
  type: "Pooling"
  bottom: "conv2"
  top: "pool2"
  pooling_param {
    pool: MAX
    kernel_size: 3
    stride: 2
  }
}
layer {
  name: "norm2"
  type: "LRN"
  bottom: "pool2"
  top: "norm2"
  lrn_param {
    local_size: 5
    alpha: 0.0001
    beta: 0.75
  }
}
layer {
  name: "conv3"
  type: "Convolution"
  bottom: "norm2"
  top: "conv3"
  param {
    lr_mult: 1
    decay_mult: 1
    regularization_type: "L1"
  }
  param {
    lr_mult: 2
    decay_mult: 0
  }
  convolution_param {
    num_output: 384
    pad: 1
    kernel_size: 3
    weight_filler {
      type: "gaussian"
      std: 0.01
    }
    bias_filler {
      type: "constant"
      value: 0
    }
  }
}
layer {
  name: "relu3"
  type: "ReLU"
  bottom: "conv3"
  top: "conv3"
}
layer {
  name: "conv4"
  type: "Convolution"
  bottom: "conv3"
  top: "conv4"
  param {
    lr_mult: 1
    decay_mult: 1
    regularization_type: "L1"
  }
  param {
    lr_mult: 2
    decay_mult: 0
  }
  convolution_param {
    num_output: 384
    pad: 1
    kernel_size: 3
    group: 2
    weight_filler {
      type: "gaussian"
      std: 0.01
    }
    bias_filler {
      type: "constant"
      value: 1
    }
  }
}
layer {
  name: "relu4"
  type: "ReLU"
  bottom: "conv4"
  top: "conv4"
}
layer {
  name: "conv5"
  type: "Convolution"
  bottom: "conv4"
  top: "conv5"
  param {
    lr_mult: 1
    decay_mult: 1
    regularization_type: "L1"
  }
  param {
    lr_mult: 2
    decay_mult: 0
  }
  convolution_param {
    num_output: 256
    pad: 1
    kernel_size: 3
    group: 2
    weight_filler {
      type: "gaussian"
      std: 0.01
    }
    bias_filler {
      type: "constant"
      value: 1
    }
  }
}
layer {
  name: "relu5"
  type: "ReLU"
  bottom: "conv5"
  top: "conv5"
}
layer {
  name: "pool5"
  type: "Pooling"
  bottom: "conv5"
  top: "pool5"
  pooling_param {
    pool: MAX
    kernel_size: 3
    stride: 2
  }
}
layer {
  name: "fc6"
  type: "InnerProduct"
  bottom: "pool5"
  top: "fc6"
  param {
    lr_mult: 1
    decay_mult: 0.1
    regularization_type: "L1"
  }
  param {
    lr_mult: 2
    decay_mult: 0
  }
  inner_product_param {
    num_output: 4096
    weight_filler {
      type: "gaussian"
      std: 0.005
    }
    bias_filler {
      type: "constant"
      value: 1
    }
  }
}
layer {
  name: "relu6"
  type: "ReLU"
  bottom: "fc6"
  top: "fc6"
}
layer {
  name: "drop6"
  type: "Dropout"
  bottom: "fc6"
  top: "fc6"
  dropout_param {
    dropout_ratio: 0.5
  }
}
layer {
  name: "fc7"
  type: "InnerProduct"
  bottom: "fc6"
  top: "fc7"
  param {
    lr_mult: 1
    decay_mult: 0.1
    regularization_type: "L1"
  }
  param {
    lr_mult: 2
    decay_mult: 0
  }
  inner_product_param {
    num_output: 4096
    weight_filler {
      type: "gaussian"
      std: 0.005
    }
    bias_filler {
      type: "constant"
      value: 1
    }
  }
}
layer {
  name: "relu7"
  type: "ReLU"
  bottom: "fc7"
  top: "fc7"
}
layer {
  name: "drop7"
  type: "Dropout"
  bottom: "fc7"
  top: "fc7"
  dropout_param {
    dropout_ratio: 0.5
  }
}
layer {
  name: "fc8"
  type: "InnerProduct"
  bottom: "fc7"
  top: "fc8"
  param {
    lr_mult: 1
    decay_mult: 1
    regularization_type: "L2"
  }
  param {
    lr_mult: 2
    decay_mult: 0
  }
  inner_product_param {
    num_output: 1000
    weight_filler {
      type: "gaussian"
      std: 0.01
    }
    bias_filler {
      type: "constant"
      value: 0
    }
  }
}
layer {
  name: "loss"
  type: "SoftmaxWithLoss"
  bottom: "fc8"
  bottom: "label"
  top: "loss"
}
I0517 08:20:12.143347  4008 layer_factory.hpp:77] Creating layer data
I0517 08:20:12.144224  4008 net.cpp:93] Creating Layer data
I0517 08:20:12.144250  4008 net.cpp:401] data -> data
I0517 08:20:12.144294  4008 net.cpp:401] data -> label
I0517 08:20:12.144314  4008 data_transformer.cpp:25] Loading mean file from: data/ilsvrc12/imagenet_mean.binaryproto
I0517 08:20:12.146472  4011 db_lmdb.cpp:38] Opened lmdb examples/imagenet/ilsvrc12_train_lmdb
I0517 08:20:12.839583  4008 data_layer.cpp:41] output data size: 256,3,227,227
I0517 08:20:13.320523  4008 net.cpp:143] Setting up data
I0517 08:20:13.320570  4008 net.cpp:150] Top shape: 256 3 227 227 (39574272)
I0517 08:20:13.320585  4008 net.cpp:150] Top shape: 256 (256)
I0517 08:20:13.320590  4008 net.cpp:158] Memory required for data: 158298112
I0517 08:20:13.320611  4008 layer_factory.hpp:77] Creating layer conv1
I0517 08:20:13.320643  4008 net.cpp:93] Creating Layer conv1
I0517 08:20:13.320650  4008 net.cpp:427] conv1 <- data
I0517 08:20:13.320669  4008 net.cpp:401] conv1 -> conv1
I0517 08:20:15.757992  4008 net.cpp:143] Setting up conv1
I0517 08:20:15.758064  4008 net.cpp:150] Top shape: 256 96 55 55 (74342400)
I0517 08:20:15.758081  4008 net.cpp:158] Memory required for data: 455667712
I0517 08:20:15.758141  4008 layer_factory.hpp:77] Creating layer relu1
I0517 08:20:15.758165  4008 net.cpp:93] Creating Layer relu1
I0517 08:20:15.758174  4008 net.cpp:427] relu1 <- conv1
I0517 08:20:15.758189  4008 net.cpp:388] relu1 -> conv1 (in-place)
I0517 08:20:15.758744  4008 net.cpp:143] Setting up relu1
I0517 08:20:15.758764  4008 net.cpp:150] Top shape: 256 96 55 55 (74342400)
I0517 08:20:15.758775  4008 net.cpp:158] Memory required for data: 753037312
I0517 08:20:15.758785  4008 layer_factory.hpp:77] Creating layer pool1
I0517 08:20:15.758800  4008 net.cpp:93] Creating Layer pool1
I0517 08:20:15.758808  4008 net.cpp:427] pool1 <- conv1
I0517 08:20:15.758846  4008 net.cpp:401] pool1 -> pool1
I0517 08:20:15.885149  4008 net.cpp:143] Setting up pool1
I0517 08:20:15.885198  4008 net.cpp:150] Top shape: 256 96 27 27 (17915904)
I0517 08:20:15.885211  4008 net.cpp:158] Memory required for data: 824700928
I0517 08:20:15.885221  4008 layer_factory.hpp:77] Creating layer norm1
I0517 08:20:15.885251  4008 net.cpp:93] Creating Layer norm1
I0517 08:20:15.885257  4008 net.cpp:427] norm1 <- pool1
I0517 08:20:15.885267  4008 net.cpp:401] norm1 -> norm1
I0517 08:20:16.005388  4008 net.cpp:143] Setting up norm1
I0517 08:20:16.005436  4008 net.cpp:150] Top shape: 256 96 27 27 (17915904)
I0517 08:20:16.005448  4008 net.cpp:158] Memory required for data: 896364544
I0517 08:20:16.005457  4008 layer_factory.hpp:77] Creating layer conv2
I0517 08:20:16.005481  4008 net.cpp:93] Creating Layer conv2
I0517 08:20:16.005487  4008 net.cpp:427] conv2 <- norm1
I0517 08:20:16.005498  4008 net.cpp:401] conv2 -> conv2
I0517 08:20:17.701287  4008 net.cpp:143] Setting up conv2
I0517 08:20:17.701340  4008 net.cpp:150] Top shape: 256 256 27 27 (47775744)
I0517 08:20:17.701356  4008 net.cpp:158] Memory required for data: 1087467520
I0517 08:20:17.701388  4008 layer_factory.hpp:77] Creating layer relu2
I0517 08:20:17.701406  4008 net.cpp:93] Creating Layer relu2
I0517 08:20:17.701414  4008 net.cpp:427] relu2 <- conv2
I0517 08:20:17.701426  4008 net.cpp:388] relu2 -> conv2 (in-place)
I0517 08:20:17.701827  4008 net.cpp:143] Setting up relu2
I0517 08:20:17.701844  4008 net.cpp:150] Top shape: 256 256 27 27 (47775744)
I0517 08:20:17.701855  4008 net.cpp:158] Memory required for data: 1278570496
I0517 08:20:17.701864  4008 layer_factory.hpp:77] Creating layer pool2
I0517 08:20:17.701879  4008 net.cpp:93] Creating Layer pool2
I0517 08:20:17.701886  4008 net.cpp:427] pool2 <- conv2
I0517 08:20:17.701899  4008 net.cpp:401] pool2 -> pool2
I0517 08:20:17.770042  4008 net.cpp:143] Setting up pool2
I0517 08:20:17.770086  4008 net.cpp:150] Top shape: 256 256 13 13 (11075584)
I0517 08:20:17.770098  4008 net.cpp:158] Memory required for data: 1322872832
I0517 08:20:17.770107  4008 layer_factory.hpp:77] Creating layer norm2
I0517 08:20:17.770133  4008 net.cpp:93] Creating Layer norm2
I0517 08:20:17.770139  4008 net.cpp:427] norm2 <- pool2
I0517 08:20:17.770151  4008 net.cpp:401] norm2 -> norm2
I0517 08:20:17.842864  4008 net.cpp:143] Setting up norm2
I0517 08:20:17.842905  4008 net.cpp:150] Top shape: 256 256 13 13 (11075584)
I0517 08:20:17.842916  4008 net.cpp:158] Memory required for data: 1367175168
I0517 08:20:17.842923  4008 layer_factory.hpp:77] Creating layer conv3
I0517 08:20:17.842949  4008 net.cpp:93] Creating Layer conv3
I0517 08:20:17.842957  4008 net.cpp:427] conv3 <- norm2
I0517 08:20:17.842967  4008 net.cpp:401] conv3 -> conv3
I0517 08:20:18.258940  4008 net.cpp:143] Setting up conv3
I0517 08:20:18.258982  4008 net.cpp:150] Top shape: 256 384 13 13 (16613376)
I0517 08:20:18.258998  4008 net.cpp:158] Memory required for data: 1433628672
I0517 08:20:18.259019  4008 layer_factory.hpp:77] Creating layer relu3
I0517 08:20:18.259033  4008 net.cpp:93] Creating Layer relu3
I0517 08:20:18.259039  4008 net.cpp:427] relu3 <- conv3
I0517 08:20:18.259049  4008 net.cpp:388] relu3 -> conv3 (in-place)
I0517 08:20:18.259320  4008 net.cpp:143] Setting up relu3
I0517 08:20:18.259330  4008 net.cpp:150] Top shape: 256 384 13 13 (16613376)
I0517 08:20:18.259337  4008 net.cpp:158] Memory required for data: 1500082176
I0517 08:20:18.259343  4008 layer_factory.hpp:77] Creating layer conv4
I0517 08:20:18.259363  4008 net.cpp:93] Creating Layer conv4
I0517 08:20:18.259368  4008 net.cpp:427] conv4 <- conv3
I0517 08:20:18.259378  4008 net.cpp:401] conv4 -> conv4
I0517 08:20:18.870573  4008 net.cpp:143] Setting up conv4
I0517 08:20:18.870632  4008 net.cpp:150] Top shape: 256 384 13 13 (16613376)
I0517 08:20:18.870648  4008 net.cpp:158] Memory required for data: 1566535680
I0517 08:20:18.870672  4008 layer_factory.hpp:77] Creating layer relu4
I0517 08:20:18.870692  4008 net.cpp:93] Creating Layer relu4
I0517 08:20:18.870714  4008 net.cpp:427] relu4 <- conv4
I0517 08:20:18.870743  4008 net.cpp:388] relu4 -> conv4 (in-place)
I0517 08:20:18.871058  4008 net.cpp:143] Setting up relu4
I0517 08:20:18.871073  4008 net.cpp:150] Top shape: 256 384 13 13 (16613376)
I0517 08:20:18.871083  4008 net.cpp:158] Memory required for data: 1632989184
I0517 08:20:18.871090  4008 layer_factory.hpp:77] Creating layer conv5
I0517 08:20:18.871119  4008 net.cpp:93] Creating Layer conv5
I0517 08:20:18.871127  4008 net.cpp:427] conv5 <- conv4
I0517 08:20:18.871141  4008 net.cpp:401] conv5 -> conv5
I0517 08:20:19.468652  4008 net.cpp:143] Setting up conv5
I0517 08:20:19.468703  4008 net.cpp:150] Top shape: 256 256 13 13 (11075584)
I0517 08:20:19.468716  4008 net.cpp:158] Memory required for data: 1677291520
I0517 08:20:19.468740  4008 layer_factory.hpp:77] Creating layer relu5
I0517 08:20:19.468757  4008 net.cpp:93] Creating Layer relu5
I0517 08:20:19.468765  4008 net.cpp:427] relu5 <- conv5
I0517 08:20:19.468773  4008 net.cpp:388] relu5 -> conv5 (in-place)
I0517 08:20:19.469053  4008 net.cpp:143] Setting up relu5
I0517 08:20:19.469063  4008 net.cpp:150] Top shape: 256 256 13 13 (11075584)
I0517 08:20:19.469071  4008 net.cpp:158] Memory required for data: 1721593856
I0517 08:20:19.469076  4008 layer_factory.hpp:77] Creating layer pool5
I0517 08:20:19.469084  4008 net.cpp:93] Creating Layer pool5
I0517 08:20:19.469089  4008 net.cpp:427] pool5 <- conv5
I0517 08:20:19.469099  4008 net.cpp:401] pool5 -> pool5
I0517 08:20:19.482535  4008 net.cpp:143] Setting up pool5
I0517 08:20:19.482581  4008 net.cpp:150] Top shape: 256 256 6 6 (2359296)
I0517 08:20:19.482594  4008 net.cpp:158] Memory required for data: 1731031040
I0517 08:20:19.482604  4008 layer_factory.hpp:77] Creating layer fc6
I0517 08:20:19.482630  4008 net.cpp:93] Creating Layer fc6
I0517 08:20:19.482640  4008 net.cpp:427] fc6 <- pool5
I0517 08:20:19.482661  4008 net.cpp:401] fc6 -> fc6
I0517 08:20:20.178741  4008 net.cpp:143] Setting up fc6
I0517 08:20:20.178786  4008 net.cpp:150] Top shape: 256 4096 (1048576)
I0517 08:20:20.178797  4008 net.cpp:158] Memory required for data: 1735225344
I0517 08:20:20.178815  4008 layer_factory.hpp:77] Creating layer relu6
I0517 08:20:20.178828  4008 net.cpp:93] Creating Layer relu6
I0517 08:20:20.178834  4008 net.cpp:427] relu6 <- fc6
I0517 08:20:20.178846  4008 net.cpp:388] relu6 -> fc6 (in-place)
I0517 08:20:20.179361  4008 net.cpp:143] Setting up relu6
I0517 08:20:20.179376  4008 net.cpp:150] Top shape: 256 4096 (1048576)
I0517 08:20:20.179384  4008 net.cpp:158] Memory required for data: 1739419648
I0517 08:20:20.179389  4008 layer_factory.hpp:77] Creating layer drop6
I0517 08:20:20.179399  4008 net.cpp:93] Creating Layer drop6
I0517 08:20:20.179404  4008 net.cpp:427] drop6 <- fc6
I0517 08:20:20.179412  4008 net.cpp:388] drop6 -> fc6 (in-place)
I0517 08:20:20.182162  4008 net.cpp:143] Setting up drop6
I0517 08:20:20.182183  4008 net.cpp:150] Top shape: 256 4096 (1048576)
I0517 08:20:20.182193  4008 net.cpp:158] Memory required for data: 1743613952
I0517 08:20:20.182200  4008 layer_factory.hpp:77] Creating layer fc7
I0517 08:20:20.182215  4008 net.cpp:93] Creating Layer fc7
I0517 08:20:20.182220  4008 net.cpp:427] fc7 <- fc6
I0517 08:20:20.182230  4008 net.cpp:401] fc7 -> fc7
I0517 08:20:20.613090  4008 net.cpp:143] Setting up fc7
I0517 08:20:20.613157  4008 net.cpp:150] Top shape: 256 4096 (1048576)
I0517 08:20:20.613178  4008 net.cpp:158] Memory required for data: 1747808256
I0517 08:20:20.613207  4008 layer_factory.hpp:77] Creating layer relu7
I0517 08:20:20.613231  4008 net.cpp:93] Creating Layer relu7
I0517 08:20:20.613246  4008 net.cpp:427] relu7 <- fc7
I0517 08:20:20.613262  4008 net.cpp:388] relu7 -> fc7 (in-place)
I0517 08:20:20.613695  4008 net.cpp:143] Setting up relu7
I0517 08:20:20.613718  4008 net.cpp:150] Top shape: 256 4096 (1048576)
I0517 08:20:20.613736  4008 net.cpp:158] Memory required for data: 1752002560
I0517 08:20:20.613749  4008 layer_factory.hpp:77] Creating layer drop7
I0517 08:20:20.613767  4008 net.cpp:93] Creating Layer drop7
I0517 08:20:20.613795  4008 net.cpp:427] drop7 <- fc7
I0517 08:20:20.613828  4008 net.cpp:388] drop7 -> fc7 (in-place)
I0517 08:20:20.617667  4008 net.cpp:143] Setting up drop7
I0517 08:20:20.617708  4008 net.cpp:150] Top shape: 256 4096 (1048576)
I0517 08:20:20.617727  4008 net.cpp:158] Memory required for data: 1756196864
I0517 08:20:20.617740  4008 layer_factory.hpp:77] Creating layer fc8
I0517 08:20:20.617766  4008 net.cpp:93] Creating Layer fc8
I0517 08:20:20.617780  4008 net.cpp:427] fc8 <- fc7
I0517 08:20:20.617799  4008 net.cpp:401] fc8 -> fc8
I0517 08:20:20.706200  4008 net.cpp:143] Setting up fc8
I0517 08:20:20.706251  4008 net.cpp:150] Top shape: 256 1000 (256000)
I0517 08:20:20.706264  4008 net.cpp:158] Memory required for data: 1757220864
I0517 08:20:20.706282  4008 layer_factory.hpp:77] Creating layer loss
I0517 08:20:20.706302  4008 net.cpp:93] Creating Layer loss
I0517 08:20:20.706311  4008 net.cpp:427] loss <- fc8
I0517 08:20:20.706321  4008 net.cpp:427] loss <- label
I0517 08:20:20.706336  4008 net.cpp:401] loss -> loss
I0517 08:20:20.706377  4008 layer_factory.hpp:77] Creating layer loss
…
I0517 08:20:20.709864  4008 net.cpp:315] The NetState phase (1) differed from the phase (0) specified by a rule in layer data
I0517 08:20:20.709892  4008 net.cpp:51] Initializing net from parameters: 
name: "CaffeNet"
state {
  phase: TEST
}
layer {
  name: "data"
  type: "Data"
  top: "data"
  top: "label"
  include {
    phase: TEST
  }
  transform_param {
    mirror: false
    crop_size: 227
    mean_file: "data/ilsvrc12/imagenet_mean.binaryproto"
  }
  data_param {
    source: "examples/imagenet/ilsvrc12_val_lmdb"
    batch_size: 50
    backend: LMDB
  }
}
layer {
  name: "conv1"
  type: "Convolution"
  bottom: "data"
  top: "conv1"
  param {
    lr_mult: 1
    decay_mult: 1
    regularization_type: "L2"
  }
  param {
    lr_mult: 2
    decay_mult: 0
  }
  convolution_param {
    num_output: 96
    kernel_size: 11
    stride: 4
    weight_filler {
      type: "gaussian"
      std: 0.01
    }
    bias_filler {
      type: "constant"
      value: 0
    }
  }
}
layer {
  name: "relu1"
  type: "ReLU"
  bottom: "conv1"
  top: "conv1"
}
layer {
  name: "pool1"
  type: "Pooling"
  bottom: "conv1"
  top: "pool1"
  pooling_param {
    pool: MAX
    kernel_size: 3
    stride: 2
  }
}
layer {
  name: "norm1"
  type: "LRN"
  bottom: "pool1"
  top: "norm1"
  lrn_param {
    local_size: 5
    alpha: 0.0001
    beta: 0.75
  }
}
layer {
  name: "conv2"
  type: "Convolution"
  bottom: "norm1"
  top: "conv2"
  param {
    lr_mult: 1
    decay_mult: 1
    regularization_type: "L1"
  }
  param {
    lr_mult: 2
    decay_mult: 0
  }
  convolution_param {
    num_output: 256
    pad: 2
    kernel_size: 5
    group: 2
    weight_filler {
      type: "gaussian"
      std: 0.01
    }
    bias_filler {
      type: "constant"
      value: 1
    }
  }
}
layer {
  name: "relu2"
  type: "ReLU"
  bottom: "conv2"
  top: "conv2"
}
layer {
  name: "pool2"
  type: "Pooling"
  bottom: "conv2"
  top: "pool2"
  pooling_param {
    pool: MAX
    kernel_size: 3
    stride: 2
  }
}
layer {
  name: "norm2"
  type: "LRN"
  bottom: "pool2"
  top: "norm2"
  lrn_param {
    local_size: 5
    alpha: 0.0001
    beta: 0.75
  }
}
layer {
  name: "conv3"
  type: "Convolution"
  bottom: "norm2"
  top: "conv3"
  param {
    lr_mult: 1
    decay_mult: 1
    regularization_type: "L1"
  }
  param {
    lr_mult: 2
    decay_mult: 0
  }
  convolution_param {
    num_output: 384
    pad: 1
    kernel_size: 3
    weight_filler {
      type: "gaussian"
      std: 0.01
    }
    bias_filler {
      type: "constant"
      value: 0
    }
  }
}
layer {
  name: "relu3"
  type: "ReLU"
  bottom: "conv3"
  top: "conv3"
}
layer {
  name: "conv4"
  type: "Convolution"
  bottom: "conv3"
  top: "conv4"
  param {
    lr_mult: 1
    decay_mult: 1
    regularization_type: "L1"
  }
  param {
    lr_mult: 2
    decay_mult: 0
  }
  convolution_param {
    num_output: 384
    pad: 1
    kernel_size: 3
    group: 2
    weight_filler {
      type: "gaussian"
      std: 0.01
    }
    bias_filler {
      type: "constant"
      value: 1
    }
  }
}
layer {
  name: "relu4"
  type: "ReLU"
  bottom: "conv4"
  top: "conv4"
}
layer {
  name: "conv5"
  type: "Convolution"
  bottom: "conv4"
  top: "conv5"
  param {
    lr_mult: 1
    decay_mult: 1
    regularization_type: "L1"
  }
  param {
    lr_mult: 2
    decay_mult: 0
  }
  convolution_param {
    num_output: 256
    pad: 1
    kernel_size: 3
    group: 2
    weight_filler {
      type: "gaussian"
      std: 0.01
    }
    bias_filler {
      type: "constant"
      value: 1
    }
  }
}
layer {
  name: "relu5"
  type: "ReLU"
  bottom: "conv5"
  top: "conv5"
}
layer {
  name: "pool5"
  type: "Pooling"
  bottom: "conv5"
  top: "pool5"
  pooling_param {
    pool: MAX
    kernel_size: 3
    stride: 2
  }
}
layer {
  name: "fc6"
  type: "InnerProduct"
  bottom: "pool5"
  top: "fc6"
  param {
    lr_mult: 1
    decay_mult: 0.1
    regularization_type: "L1"
  }
  param {
    lr_mult: 2
    decay_mult: 0
  }
  inner_product_param {
    num_output: 4096
    weight_filler {
      type: "gaussian"
      std: 0.005
    }
    bias_filler {
      type: "constant"
      value: 1
    }
  }
}
layer {
  name: "relu6"
  type: "ReLU"
  bottom: "fc6"
  top: "fc6"
}
layer {
  name: "drop6"
  type: "Dropout"
  bottom: "fc6"
  top: "fc6"
  dropout_param {
    dropout_ratio: 0.5
  }
}
layer {
  name: "fc7"
  type: "InnerProduct"
  bottom: "fc6"
  top: "fc7"
  param {
    lr_mult: 1
    decay_mult: 0.1
    regularization_type: "L1"
  }
  param {
    lr_mult: 2
    decay_mult: 0
  }
  inner_product_param {
    num_output: 4096
    weight_filler {
      type: "gaussian"
      std: 0.005
    }
    bias_filler {
      type: "constant"
      value: 1
    }
  }
}
layer {
  name: "relu7"
  type: "ReLU"
  bottom: "fc7"
  top: "fc7"
}
layer {
  name: "drop7"
  type: "Dropout"
  bottom: "fc7"
  top: "fc7"
  dropout_param {
    dropout_ratio: 0.5
  }
}
layer {
  name: "fc8"
  type: "InnerProduct"
  bottom: "fc7"
  top: "fc8"
  param {
    lr_mult: 1
    decay_mult: 1
    regularization_type: "L2"
  }
  param {
    lr_mult: 2
    decay_mult: 0
  }
  inner_product_param {
    num_output: 1000
    weight_filler {
      type: "gaussian"
      std: 0.01
    }
    bias_filler {
      type: "constant"
      value: 0
    }
  }
}
layer {
  name: "accuracy"
  type: "Accuracy"
  bottom: "fc8"
  bottom: "label"
  top: "accuracy"
  include {
    phase: TEST
  }
}
layer {
  name: "loss"
  type: "SoftmaxWithLoss"
  bottom: "fc8"
  bottom: "label"
  top: "loss"
}
I0517 08:20:20.710211  4008 layer_factory.hpp:77] Creating layer data
I0517 08:20:20.710321  4008 net.cpp:93] Creating Layer data
I0517 08:20:20.710388  4008 net.cpp:401] data -> data
I0517 08:20:20.710417  4008 net.cpp:401] data -> label
I0517 08:20:20.710438  4008 data_transformer.cpp:25] Loading mean file from: data/ilsvrc12/imagenet_mean.binaryproto
I0517 08:20:20.713593  4016 db_lmdb.cpp:38] Opened lmdb examples/imagenet/ilsvrc12_val_lmdb
I0517 08:20:20.849247  4008 data_layer.cpp:41] output data size: 50,3,227,227
I0517 08:20:20.963309  4008 net.cpp:143] Setting up data
I0517 08:20:20.963359  4008 net.cpp:150] Top shape: 50 3 227 227 (7729350)
I0517 08:20:20.963373  4008 net.cpp:150] Top shape: 50 (50)
I0517 08:20:20.963382  4008 net.cpp:158] Memory required for data: 30917600
I0517 08:20:20.963390  4008 layer_factory.hpp:77] Creating layer label_data_1_split
I0517 08:20:20.963405  4008 net.cpp:93] Creating Layer label_data_1_split
I0517 08:20:20.963414  4008 net.cpp:427] label_data_1_split <- label
I0517 08:20:20.963425  4008 net.cpp:401] label_data_1_split -> label_data_1_split_0
I0517 08:20:20.963441  4008 net.cpp:401] label_data_1_split -> label_data_1_split_1
I0517 08:20:20.963800  4008 net.cpp:143] Setting up label_data_1_split
I0517 08:20:20.963819  4008 net.cpp:150] Top shape: 50 (50)
I0517 08:20:20.963829  4008 net.cpp:150] Top shape: 50 (50)
I0517 08:20:20.963835  4008 net.cpp:158] Memory required for data: 30918000
I0517 08:20:20.963843  4008 layer_factory.hpp:77] Creating layer conv1
I0517 08:20:20.963865  4008 net.cpp:93] Creating Layer conv1
I0517 08:20:20.963873  4008 net.cpp:427] conv1 <- data
I0517 08:20:20.963883  4008 net.cpp:401] conv1 -> conv1
I0517 08:20:21.234864  4008 net.cpp:143] Setting up conv1
I0517 08:20:21.234938  4008 net.cpp:150] Top shape: 50 96 55 55 (14520000)
I0517 08:20:21.234956  4008 net.cpp:158] Memory required for data: 88998000
I0517 08:20:21.234989  4008 layer_factory.hpp:77] Creating layer relu1
I0517 08:20:21.235013  4008 net.cpp:93] Creating Layer relu1
I0517 08:20:21.235023  4008 net.cpp:427] relu1 <- conv1
I0517 08:20:21.235038  4008 net.cpp:388] relu1 -> conv1 (in-place)
I0517 08:20:21.235431  4008 net.cpp:143] Setting up relu1
I0517 08:20:21.235455  4008 net.cpp:150] Top shape: 50 96 55 55 (14520000)
I0517 08:20:21.235471  4008 net.cpp:158] Memory required for data: 147078000
I0517 08:20:21.235479  4008 layer_factory.hpp:77] Creating layer pool1
I0517 08:20:21.235496  4008 net.cpp:93] Creating Layer pool1
I0517 08:20:21.235509  4008 net.cpp:427] pool1 <- conv1
I0517 08:20:21.235525  4008 net.cpp:401] pool1 -> pool1
I0517 08:20:21.262795  4008 net.cpp:143] Setting up pool1
I0517 08:20:21.262859  4008 net.cpp:150] Top shape: 50 96 27 27 (3499200)
I0517 08:20:21.262877  4008 net.cpp:158] Memory required for data: 161074800
I0517 08:20:21.262892  4008 layer_factory.hpp:77] Creating layer norm1
I0517 08:20:21.262914  4008 net.cpp:93] Creating Layer norm1
I0517 08:20:21.262928  4008 net.cpp:427] norm1 <- pool1
I0517 08:20:21.262943  4008 net.cpp:401] norm1 -> norm1
I0517 08:20:21.295527  4008 net.cpp:143] Setting up norm1
I0517 08:20:21.295605  4008 net.cpp:150] Top shape: 50 96 27 27 (3499200)
I0517 08:20:21.295625  4008 net.cpp:158] Memory required for data: 175071600
I0517 08:20:21.295642  4008 layer_factory.hpp:77] Creating layer conv2
I0517 08:20:21.295707  4008 net.cpp:93] Creating Layer conv2
I0517 08:20:21.295742  4008 net.cpp:427] conv2 <- norm1
I0517 08:20:21.295765  4008 net.cpp:401] conv2 -> conv2
I0517 08:20:21.717317  4008 net.cpp:143] Setting up conv2
I0517 08:20:21.717386  4008 net.cpp:150] Top shape: 50 256 27 27 (9331200)
I0517 08:20:21.717403  4008 net.cpp:158] Memory required for data: 212396400
I0517 08:20:21.717437  4008 layer_factory.hpp:77] Creating layer relu2
I0517 08:20:21.717464  4008 net.cpp:93] Creating Layer relu2
I0517 08:20:21.717475  4008 net.cpp:427] relu2 <- conv2
I0517 08:20:21.717489  4008 net.cpp:388] relu2 -> conv2 (in-place)
I0517 08:20:21.717821  4008 net.cpp:143] Setting up relu2
I0517 08:20:21.717840  4008 net.cpp:150] Top shape: 50 256 27 27 (9331200)
I0517 08:20:21.717851  4008 net.cpp:158] Memory required for data: 249721200
I0517 08:20:21.717857  4008 layer_factory.hpp:77] Creating layer pool2
I0517 08:20:21.717870  4008 net.cpp:93] Creating Layer pool2
I0517 08:20:21.717876  4008 net.cpp:427] pool2 <- conv2
I0517 08:20:21.717890  4008 net.cpp:401] pool2 -> pool2
I0517 08:20:21.734263  4008 net.cpp:143] Setting up pool2
I0517 08:20:21.734331  4008 net.cpp:150] Top shape: 50 256 13 13 (2163200)
I0517 08:20:21.734349  4008 net.cpp:158] Memory required for data: 258374000
I0517 08:20:21.734362  4008 layer_factory.hpp:77] Creating layer norm2
I0517 08:20:21.734395  4008 net.cpp:93] Creating Layer norm2
I0517 08:20:21.734405  4008 net.cpp:427] norm2 <- pool2
I0517 08:20:21.734421  4008 net.cpp:401] norm2 -> norm2
I0517 08:20:21.751879  4008 net.cpp:143] Setting up norm2
I0517 08:20:21.751946  4008 net.cpp:150] Top shape: 50 256 13 13 (2163200)
I0517 08:20:21.751965  4008 net.cpp:158] Memory required for data: 267026800
I0517 08:20:21.751982  4008 layer_factory.hpp:77] Creating layer conv3
I0517 08:20:21.752022  4008 net.cpp:93] Creating Layer conv3
I0517 08:20:21.752034  4008 net.cpp:427] conv3 <- norm2
I0517 08:20:21.752053  4008 net.cpp:401] conv3 -> conv3
I0517 08:20:21.870615  4008 net.cpp:143] Setting up conv3
I0517 08:20:21.870667  4008 net.cpp:150] Top shape: 50 384 13 13 (3244800)
I0517 08:20:21.870681  4008 net.cpp:158] Memory required for data: 280006000
I0517 08:20:21.870704  4008 layer_factory.hpp:77] Creating layer relu3
I0517 08:20:21.870721  4008 net.cpp:93] Creating Layer relu3
I0517 08:20:21.870728  4008 net.cpp:427] relu3 <- conv3
I0517 08:20:21.870739  4008 net.cpp:388] relu3 -> conv3 (in-place)
I0517 08:20:21.871276  4008 net.cpp:143] Setting up relu3
I0517 08:20:21.871295  4008 net.cpp:150] Top shape: 50 384 13 13 (3244800)
I0517 08:20:21.871306  4008 net.cpp:158] Memory required for data: 292985200
I0517 08:20:21.871312  4008 layer_factory.hpp:77] Creating layer conv4
I0517 08:20:21.871337  4008 net.cpp:93] Creating Layer conv4
I0517 08:20:21.871352  4008 net.cpp:427] conv4 <- conv3
I0517 08:20:21.871371  4008 net.cpp:401] conv4 -> conv4
I0517 08:20:22.019747  4008 net.cpp:143] Setting up conv4
I0517 08:20:22.019819  4008 net.cpp:150] Top shape: 50 384 13 13 (3244800)
I0517 08:20:22.019840  4008 net.cpp:158] Memory required for data: 305964400
I0517 08:20:22.019871  4008 layer_factory.hpp:77] Creating layer relu4
I0517 08:20:22.019896  4008 net.cpp:93] Creating Layer relu4
I0517 08:20:22.019906  4008 net.cpp:427] relu4 <- conv4
I0517 08:20:22.019919  4008 net.cpp:388] relu4 -> conv4 (in-place)
I0517 08:20:22.020311  4008 net.cpp:143] Setting up relu4
I0517 08:20:22.020334  4008 net.cpp:150] Top shape: 50 384 13 13 (3244800)
I0517 08:20:22.020349  4008 net.cpp:158] Memory required for data: 318943600
I0517 08:20:22.020359  4008 layer_factory.hpp:77] Creating layer conv5
I0517 08:20:22.020383  4008 net.cpp:93] Creating Layer conv5
I0517 08:20:22.020393  4008 net.cpp:427] conv5 <- conv4
I0517 08:20:22.020413  4008 net.cpp:401] conv5 -> conv5
I0517 08:20:22.158221  4008 net.cpp:143] Setting up conv5
I0517 08:20:22.158295  4008 net.cpp:150] Top shape: 50 256 13 13 (2163200)
I0517 08:20:22.158318  4008 net.cpp:158] Memory required for data: 327596400
I0517 08:20:22.158350  4008 layer_factory.hpp:77] Creating layer relu5
I0517 08:20:22.158411  4008 net.cpp:93] Creating Layer relu5
I0517 08:20:22.158422  4008 net.cpp:427] relu5 <- conv5
I0517 08:20:22.158437  4008 net.cpp:388] relu5 -> conv5 (in-place)
I0517 08:20:22.158797  4008 net.cpp:143] Setting up relu5
I0517 08:20:22.158817  4008 net.cpp:150] Top shape: 50 256 13 13 (2163200)
I0517 08:20:22.158831  4008 net.cpp:158] Memory required for data: 336249200
I0517 08:20:22.158839  4008 layer_factory.hpp:77] Creating layer pool5
I0517 08:20:22.158860  4008 net.cpp:93] Creating Layer pool5
I0517 08:20:22.158874  4008 net.cpp:427] pool5 <- conv5
I0517 08:20:22.158890  4008 net.cpp:401] pool5 -> pool5
I0517 08:20:22.162493  4008 net.cpp:143] Setting up pool5
I0517 08:20:22.162524  4008 net.cpp:150] Top shape: 50 256 6 6 (460800)
I0517 08:20:22.162539  4008 net.cpp:158] Memory required for data: 338092400
I0517 08:20:22.162551  4008 layer_factory.hpp:77] Creating layer fc6
I0517 08:20:22.162575  4008 net.cpp:93] Creating Layer fc6
I0517 08:20:22.162585  4008 net.cpp:427] fc6 <- pool5
I0517 08:20:22.162597  4008 net.cpp:401] fc6 -> fc6
I0517 08:20:22.870576  4008 net.cpp:143] Setting up fc6
I0517 08:20:22.870625  4008 net.cpp:150] Top shape: 50 4096 (204800)
I0517 08:20:22.870638  4008 net.cpp:158] Memory required for data: 338911600
I0517 08:20:22.870656  4008 layer_factory.hpp:77] Creating layer relu6
I0517 08:20:22.870671  4008 net.cpp:93] Creating Layer relu6
I0517 08:20:22.870681  4008 net.cpp:427] relu6 <- fc6
I0517 08:20:22.870690  4008 net.cpp:388] relu6 -> fc6 (in-place)
I0517 08:20:22.871259  4008 net.cpp:143] Setting up relu6
I0517 08:20:22.871279  4008 net.cpp:150] Top shape: 50 4096 (204800)
I0517 08:20:22.871289  4008 net.cpp:158] Memory required for data: 339730800
I0517 08:20:22.871294  4008 layer_factory.hpp:77] Creating layer drop6
I0517 08:20:22.871307  4008 net.cpp:93] Creating Layer drop6
I0517 08:20:22.871314  4008 net.cpp:427] drop6 <- fc6
I0517 08:20:22.871321  4008 net.cpp:388] drop6 -> fc6 (in-place)
I0517 08:20:22.872269  4008 net.cpp:143] Setting up drop6
I0517 08:20:22.872288  4008 net.cpp:150] Top shape: 50 4096 (204800)
I0517 08:20:22.872297  4008 net.cpp:158] Memory required for data: 340550000
I0517 08:20:22.872305  4008 layer_factory.hpp:77] Creating layer fc7
I0517 08:20:22.872319  4008 net.cpp:93] Creating Layer fc7
I0517 08:20:22.872325  4008 net.cpp:427] fc7 <- fc6
I0517 08:20:22.872334  4008 net.cpp:401] fc7 -> fc7
I0517 08:20:23.187232  4008 net.cpp:143] Setting up fc7
I0517 08:20:23.187283  4008 net.cpp:150] Top shape: 50 4096 (204800)
I0517 08:20:23.187301  4008 net.cpp:158] Memory required for data: 341369200
I0517 08:20:23.187319  4008 layer_factory.hpp:77] Creating layer relu7
I0517 08:20:23.187333  4008 net.cpp:93] Creating Layer relu7
I0517 08:20:23.187343  4008 net.cpp:427] relu7 <- fc7
I0517 08:20:23.187352  4008 net.cpp:388] relu7 -> fc7 (in-place)
I0517 08:20:23.187682  4008 net.cpp:143] Setting up relu7
I0517 08:20:23.187700  4008 net.cpp:150] Top shape: 50 4096 (204800)
I0517 08:20:23.187707  4008 net.cpp:158] Memory required for data: 342188400
I0517 08:20:23.187712  4008 layer_factory.hpp:77] Creating layer drop7
I0517 08:20:23.187727  4008 net.cpp:93] Creating Layer drop7
I0517 08:20:23.187733  4008 net.cpp:427] drop7 <- fc7
I0517 08:20:23.187741  4008 net.cpp:388] drop7 -> fc7 (in-place)
I0517 08:20:23.188755  4008 net.cpp:143] Setting up drop7
I0517 08:20:23.188777  4008 net.cpp:150] Top shape: 50 4096 (204800)
I0517 08:20:23.188789  4008 net.cpp:158] Memory required for data: 343007600
I0517 08:20:23.188796  4008 layer_factory.hpp:77] Creating layer fc8
I0517 08:20:23.188810  4008 net.cpp:93] Creating Layer fc8
I0517 08:20:23.188817  4008 net.cpp:427] fc8 <- fc7
I0517 08:20:23.188827  4008 net.cpp:401] fc8 -> fc8
I0517 08:20:23.264744  4008 net.cpp:143] Setting up fc8
I0517 08:20:23.264822  4008 net.cpp:150] Top shape: 50 1000 (50000)
I0517 08:20:23.264838  4008 net.cpp:158] Memory required for data: 343207600
I0517 08:20:23.264863  4008 layer_factory.hpp:77] Creating layer fc8_fc8_0_split
I0517 08:20:23.264904  4008 net.cpp:93] Creating Layer fc8_fc8_0_split
I0517 08:20:23.264930  4008 net.cpp:427] fc8_fc8_0_split <- fc8
I0517 08:20:23.264945  4008 net.cpp:401] fc8_fc8_0_split -> fc8_fc8_0_split_0
I0517 08:20:23.264960  4008 net.cpp:401] fc8_fc8_0_split -> fc8_fc8_0_split_1
I0517 08:20:23.265218  4008 net.cpp:143] Setting up fc8_fc8_0_split
I0517 08:20:23.265231  4008 net.cpp:150] Top shape: 50 1000 (50000)
I0517 08:20:23.265242  4008 net.cpp:150] Top shape: 50 1000 (50000)
I0517 08:20:23.265251  4008 net.cpp:158] Memory required for data: 343607600
I0517 08:20:23.265259  4008 layer_factory.hpp:77] Creating layer accuracy
I0517 08:20:23.265276  4008 net.cpp:93] Creating Layer accuracy
I0517 08:20:23.265283  4008 net.cpp:427] accuracy <- fc8_fc8_0_split_0
I0517 08:20:23.265292  4008 net.cpp:427] accuracy <- label_data_1_split_0
I0517 08:20:23.265302  4008 net.cpp:401] accuracy -> accuracy
…
